…
iter': 500000, 'print_iter': 100, 'viz_iter': 1000, 'viz_max_out': 16, 'snapshot_save_iter': 5000, 'coarse_l1_alpha': 1.2, 'l1_loss_alpha': 1.2, 'ae_loss_alpha': 1.2, 'global_wgan_loss_alpha': 1.0, 'gan_loss_alpha': 0.001, 'wgan_gp_lambda': 10, 'netG': {'input_dim': 3, 'ngf': 32}, 'netD': {'input_dim': 3, 'ndf': 64}}
2021-11-15 14:32:06,405 INFO Training on dataset: imagenet
2021-11-15 14:32:11,216 INFO 
Generator(
  (coarse_generator): CoarseGenerator(
    (conv1): Conv2dBlock(
      (pad): ZeroPad2d(padding=(0, 0, 0, 0), value=0.0)
      (activation): ELU(alpha=1.0, inplace=True)
      (conv): Conv2d(5, 32, kernel_size=(5, 5), stride=(1, 1), padding=(2, 2))
    )
    (conv2_downsample): Conv2dBlock(
      (pad): ZeroPad2d(padding=(0, 0, 0, 0), value=0.0)
      (activation): ELU(alpha=1.0, inplace=True)
      (conv): Conv2d(32, 64, kernel_size=(3, 3), stride=(2, 2), padding=(1, 1))
    )
    (conv3): Conv2dBlock(
      (pad): ZeroPad2d(padding=(0, 0, 0, 0), value=0.0)
      (activation): ELU(alpha=1.0, inplace=True)
      (conv): Conv2d(64, 64, kernel_size=(3, 3), stride=(1, 1), padding=(1, 1))
    )
    (conv4_downsample): Conv2dBlock(
      (pad): ZeroPad2d(padding=(0, 0, 0, 0), value=0.0)
      (activation): ELU(alpha=1.0, inplace=True)
      (conv): Conv2d(64, 128, kernel_size=(3, 3), stride=(2, 2), padding=(1, 1))
    )
    (conv5): Conv2dBlock(
      (pad): ZeroPad2d(padding=(0, 0, 0, 0), value=0.0)
      (activation): ELU(alpha=1.0, inplace=True)
      (conv): Conv2d(128, 128, kernel_size=(3, 3), stride=(1, 1), padding=(1, 1))
    )
    (conv6): Conv2dBlock(
      (pad): ZeroPad2d(padding=(0, 0, 0, 0), value=0.0)
      (activation): ELU(alpha=1.0, inplace=True)
      (conv): Conv2d(128, 128, kernel_size=(3, 3), stride=(1, 1), padding=(1, 1))
    )
    (conv7_atrous): Conv2dBlock(
      (pad): ZeroPad2d(padding=(0, 0, 0, 0), value=0.0)
      (activation): ELU(alpha=1.0, inplace=True)
      (conv): Conv2d(128, 128, kernel_size=(3, 3), stride=(1, 1), padding=(2, 2), dilation=(2, 2))
    )
    (conv8_atrous): Conv2dBlock(
      (pad): ZeroPad2d(padding=(0, 0, 0, 0), value=0.0)
      (activation): ELU(alpha=1.0, inplace=True)
      (conv): Conv2d(128, 128, kernel_size=(3, 3), stride=(1, 1), padding=(4, 4), dilation=(4, 4))
    )
    (conv9_atrous): Conv2dBlock(
      (pad): ZeroPad2d(padding=(0, 0, 0, 0), value=0.0)
      (activation): ELU(alpha=1.0, inplace=True)
      (conv): Conv2d(128, 128, kernel_size=(3, 3), stride=(1, 1), padding=(8, 8), dilation=(8, 8))
    )
    (conv10_atrous): Conv2dBlock(
      (pad): ZeroPad2d(padding=(0, 0, 0, 0), value=0.0)
      (activation): ELU(alpha=1.0, inplace=True)
      (conv): Conv2d(128, 128, kernel_size=(3, 3), stride=(1, 1), padding=(16, 16), dilation=(16, 16))
    )
    (conv11): Conv2dBlock(
      (pad): ZeroPad2d(padding=(0, 0, 0, 0), value=0.0)
      (activation): ELU(alpha=1.0, inplace=True)
      (conv): Conv2d(128, 128, kernel_size=(3, 3), stride=(1, 1), padding=(1, 1))
    )
    (conv12): Conv2dBlock(
      (pad): ZeroPad2d(padding=(0, 0, 0, 0), value=0.0)
      (activation): ELU(alpha=1.0, inplace=True)
      (conv): Conv2d(128, 128, kernel_size=(3, 3), stride=(1, 1), padding=(1, 1))
    )
    (conv13): Conv2dBlock(
      (pad): ZeroPad2d(padding=(0, 0, 0, 0), value=0.0)
      (activation): ELU(alpha=1.0, inplace=True)
      (conv): Conv2d(128, 64, kernel_size=(3, 3), stride=(1, 1), padding=(1, 1))
    )
    (conv14): Conv2dBlock(
      (pad): ZeroPad2d(padding=(0, 0, 0, 0), value=0.0)
      (activation): ELU(alpha=1.0, inplace=True)
      (conv): Conv2d(64, 64, kernel_size=(3, 3), stride=(1, 1), padding=(1, 1))
    )
    (conv15): Conv2dBlock(
      (pad): ZeroPad2d(padding=(0, 0, 0, 0), value=0.0)
      (activation): ELU(alpha=1.0, inplace=True)
      (conv): Conv2d(64, 32, kernel_size=(3, 3), stride=(1, 1), padding=(1, 1))
    )
    (conv16): Conv2dBlock(
      (pad): ZeroPad2d(padding=(0, 0, 0, 0), value=0.0)
      (activation): ELU(alpha=1.0, inplace=True)
      (conv): Conv2d(32, 16, kernel_size=(3, 3), stride=(1, 1), padding=(1, 1))
    )
    (conv17): Conv2dBlock(
      (pad): ZeroPad2d(padding=(0, 0, 0, 0), value=0.0)
      (conv): Conv2d(16, 3, kernel_size=(3, 3), stride=(1, 1), padding=(1, 1))
    )
  )
  (fine_generator): FineGenerator(
    (conv1): Conv2dBlock(
      (pad): ZeroPad2d(padding=(0, 0, 0, 0), value=0.0)
      (activation): ELU(alpha=1.0, inplace=True)
      (conv): Conv2d(5, 32, kernel_size=(5, 5), stride=(1, 1), padding=(2, 2))
    )
    (conv2_downsample): Conv2dBlock(
      (pad): ZeroPad2d(padding=(0, 0, 0, 0), value=0.0)
      (activation): ELU(alpha=1.0, inplace=True)
      (conv): Conv2d(32, 32, kernel_size=(3, 3), stride=(2, 2), padding=(1, 1))
    )
    (conv3): Conv2dBlock(
      (pad): ZeroPad2d(padding=(0, 0, 0, 0), value=0.0)
      (activation): ELU(alpha=1.0, inplace=True)
      (conv): Conv2d(32, 64, kernel_size=(3, 3), stride=(1, 1), padding=(1, 1))
    )
    (conv4_downsample): Conv2dBlock(
      (pad): ZeroPad2d(padding=(0, 0, 0, 0), value=0.0)
      (activation): ELU(alpha=1.0, inplace=True)
      (conv): Conv2d(64, 64, kernel_size=(3, 3), stride=(2, 2), padding=(1, 1))
    )
    (conv5): Conv2dBlock(
      (pad): ZeroPad2d(padding=(0, 0, 0, 0), value=0.0)
      (activation): ELU(alpha=1.0, inplace=True)
      (conv): Conv2d(64, 128, kernel_size=(3, 3), stride=(1, 1), padding=(1, 1))
    )
    (conv6): Conv2dBlock(
      (pad): ZeroPad2d(padding=(0, 0, 0, 0), value=0.0)
      (activation): ELU(alpha=1.0, inplace=True)
      (conv): Conv2d(128, 128, kernel_size=(3, 3), stride=(1, 1), padding=(1, 1))
    )
    (conv7_atrous): Conv2dBlock(
      (pad): ZeroPad2d(padding=(0, 0, 0, 0), value=0.0)
      (activation): ELU(alpha=1.0, inplace=True)
      (conv): Conv2d(128, 128, kernel_size=(3, 3), stride=(1, 1), padding=(2, 2), dilation=(2, 2))
    )
    (conv8_atrous): Conv2dBlock(
      (pad): ZeroPad2d(padding=(0, 0, 0, 0), value=0.0)
      (activation): ELU(alpha=1.0, inplace=True)
      (conv): Conv2d(128, 128, kernel_size=(3, 3), stride=(1, 1), padding=(4, 4), dilation=(4, 4))
    )
    (conv9_atrous): Conv2dBlock(
      (pad): ZeroPad2d(padding=(0, 0, 0, 0), value=0.0)
      (activation): ELU(alpha=1.0, inplace=True)
      (conv): Conv2d(128, 128, kernel_size=(3, 3), stride=(1, 1), padding=(8, 8), dilation=(8, 8))
    )
    (conv10_atrous): Conv2dBlock(
      (pad): ZeroPad2d(padding=(0, 0, 0, 0), value=0.0)
      (activation): ELU(alpha=1.0, inplace=True)
      (conv): Conv2d(128, 128, kernel_size=(3, 3), stride=(1, 1), padding=(16, 16), dilation=(16, 16))
    )
    (pmconv1): Conv2dBlock(
      (pad): ZeroPad2d(padding=(0, 0, 0, 0), value=0.0)
      (activation): ELU(alpha=1.0, inplace=True)
      (conv): Conv2d(5, 32, kernel_size=(5, 5), stride=(1, 1), padding=(2, 2))
    )
    (pmconv2_downsample): Conv2dBlock(
      (pad): ZeroPad2d(padding=(0, 0, 0, 0), value=0.0)
      (activation): ELU(alpha=1.0, inplace=True)
      (conv): Conv2d(32, 32, kernel_size=(3, 3), stride=(2, 2), padding=(1, 1))
    )
    (pmconv3): Conv2dBlock(
      (pad): ZeroPad2d(padding=(0, 0, 0, 0), value=0.0)
      (activation): ELU(alpha=1.0, inplace=True)
      (conv): Conv2d(32, 64, kernel_size=(3, 3), stride=(1, 1), padding=(1, 1))
    )
    (pmconv4_downsample): Conv2dBlock(
      (pad): ZeroPad2d(padding=(0, 0, 0, 0), value=0.0)
      (activation): ELU(alpha=1.0, inplace=True)
      (conv): Conv2d(64, 128, kernel_size=(3, 3), stride=(2, 2), padding=(1, 1))
    )
    (pmconv5): Conv2dBlock(
      (pad): ZeroPad2d(padding=(0, 0, 0, 0), value=0.0)
      (activation): ELU(alpha=1.0, inplace=True)
      (conv): Conv2d(128, 128, kernel_size=(3, 3), stride=(1, 1), padding=(1, 1))
    )
    (pmconv6): Conv2dBlock(
      (pad): ZeroPad2d(padding=(0, 0, 0, 0), value=0.0)
      (activation): ReLU(inplace=True)
      (conv): Conv2d(128, 128, kernel_size=(3, 3), stride=(1, 1), padding=(1, 1))
    )
    (contextul_attention): ContextualAttention()
    (pmconv9): Conv2dBlock(
      (pad): ZeroPad2d(padding=(0, 0, 0, 0), value=0.0)
      (activation): ELU(alpha=1.0, inplace=True)
      (conv): Conv2d(128, 128, kernel_size=(3, 3), stride=(1, 1), padding=(1, 1))
    )
    (pmconv10): Conv2dBlock(
      (pad): ZeroPad2d(padding=(0, 0, 0, 0), value=0.0)
      (activation): ELU(alpha=1.0, inplace=True)
      (conv): Conv2d(128, 128, kernel_size=(3, 3), stride=(1, 1), padding=(1, 1))
    )
    (allconv11): Conv2dBlock(
      (pad): ZeroPad2d(padding=(0, 0, 0, 0), value=0.0)
      (activation): ELU(alpha=1.0, inplace=True)
      (conv): Conv2d(256, 128, kernel_size=(3, 3), stride=(1, 1), padding=(1, 1))
    )
    (allconv12): Conv2dBlock(
      (pad): ZeroPad2d(padding=(0, 0, 0, 0), value=0.0)
      (activation): ELU(alpha=1.0, inplace=True)
      (conv): Conv2d(128, 128, kernel_size=(3, 3), stride=(1, 1), padding=(1, 1))
    )
    (allconv13): Conv2dBlock(
      (pad): ZeroPad2d(padding=(0, 0, 0, 0), value=0.0)
      (activation): ELU(alpha=1.0, inplace=True)
      (conv): Conv2d(128, 64, kernel_size=(3, 3), stride=(1, 1), padding=(1, 1))
    )
    (allconv14): Conv2dBlock(
      (pad): ZeroPad2d(padding=(0, 0, 0, 0), value=0.0)
      (activation): ELU(alpha=1.0, inplace=True)
      (conv): Conv2d(64, 64, kernel_size=(3, 3), stride=(1, 1), padding=(1, 1))
    )
    (allconv15): Conv2dBlock(
      (pad): ZeroPad2d(padding=(0, 0, 0, 0), value=0.0)
      (activation): ELU(alpha=1.0, inplace=True)
      (conv): Conv2d(64, 32, kernel_size=(3, 3), stride=(1, 1), padding=(1, 1))
    )
    (allconv16): Conv2dBlock(
      (pad): ZeroPad2d(padding=(0, 0, 0, 0), value=0.0)
      (activation): ELU(alpha=1.0, inplace=True)
      (conv): Conv2d(32, 16, kernel_size=(3, 3), stride=(1, 1), padding=(1, 1))
    )
    (allconv17): Conv2dBlock(
      (pad): ZeroPad2d(padding=(0, 0, 0, 0), value=0.0)
      (conv): Conv2d(16, 3, kernel_size=(3, 3), stride=(1, 1), padding=(1, 1))
    )
  )
)
2021-11-15 14:32:11,216 INFO 
LocalDis(
  (dis_conv_module): DisConvModule(
    (conv1): Conv2dBlock(
      (pad): ZeroPad2d(padding=(0, 0, 0, 0), value=0.0)
      (activation): LeakyReLU(negative_slope=0.2, inplace=True)
      (conv): Conv2d(3, 64, kernel_size=(5, 5), stride=(2, 2), padding=(2, 2))
    )
    (conv2): Conv2dBlock(
      (pad): ZeroPad2d(padding=(0, 0, 0, 0), value=0.0)
      (activation): LeakyReLU(negative_slope=0.2, inplace=True)
      (conv): Conv2d(64, 128, kernel_size=(5, 5), stride=(2, 2), padding=(2, 2))
    )
    (conv3): Conv2dBlock(
      (pad): ZeroPad2d(padding=(0, 0, 0, 0), value=0.0)
      (activation): LeakyReLU(negative_slope=0.2, inplace=True)
      (conv): Conv2d(128, 256, kernel_size=(5, 5), stride=(2, 2), padding=(2, 2))
    )
    (conv4): Conv2dBlock(
      (pad): ZeroPad2d(padding=(0, 0, 0, 0), value=0.0)
      (activation): LeakyReLU(negative_slope=0.2, inplace=True)
      (conv): Conv2d(256, 256, kernel_size=(5, 5), stride=(2, 2), padding=(2, 2))
    )
  )
  (linear): Linear(in_features=16384, out_features=1, bias=True)
)
2021-11-15 14:32:11,217 INFO 
GlobalDis(
  (dis_conv_module): DisConvModule(
    (conv1): Conv2dBlock(
      (pad): ZeroPad2d(padding=(0, 0, 0, 0), value=0.0)
      (activation): LeakyReLU(negative_slope=0.2, inplace=True)
      (conv): Conv2d(3, 64, kernel_size=(5, 5), stride=(2, 2), padding=(2, 2))
    )
    (conv2): Conv2dBlock(
      (pad): ZeroPad2d(padding=(0, 0, 0, 0), value=0.0)
      (activation): LeakyReLU(negative_slope=0.2, inplace=True)
      (conv): Conv2d(64, 128, kernel_size=(5, 5), stride=(2, 2), padding=(2, 2))
    )
    (conv3): Conv2dBlock(
      (pad): ZeroPad2d(padding=(0, 0, 0, 0), value=0.0)
      (activation): LeakyReLU(negative_slope=0.2, inplace=True)
      (conv): Conv2d(128, 256, kernel_size=(5, 5), stride=(2, 2), padding=(2, 2))
    )
    (conv4): Conv2dBlock(
      (pad): ZeroPad2d(padding=(0, 0, 0, 0), value=0.0)
      (activation): LeakyReLU(negative_slope=0.2, inplace=True)
      (conv): Conv2d(256, 256, kernel_size=(5, 5), stride=(2, 2), padding=(2, 2))
    )
  )
  (linear): Linear(in_features=65536, out_features=1, bias=True)
)
2021-11-15 14:32:15,460 ERROR Caught RuntimeError in replica 0 on device 0.
Original Traceback (most recent call last):
  File "/opt/conda/lib/python3.8/site-packages/torch/nn/parallel/parallel_apply.py", line 61, in _worker
    output = module(*input, **kwargs)
  File "/opt/conda/lib/python3.8/site-packages/torch/nn/modules/module.py", line 1102, in _call_impl
…
